npy/weights_C2.npy (npy, 73808 bytes, 1 tensors)

array (column-major) f4 [3, 3, 32, 64]
0.029567488 0.061793376 0.053334165 -0.04141901 0.0070449263 0.015945816 -0.10688892 0.033663563
0.0043458208 0.04995761 -0.12099007 -0.034535807 -0.041547593 -0.043841112 0.01200466 -0.006971172
-0.1123152 -0.060971674 -0.061564784 -0.016810162 0.0021962435 -0.009744187 -0.10495813 0.020634117
-0.12279565 0.011044699 0.00656289 -0.0015789075 -0.04666295 -0.021813093 0.041003216 -0.010832617
0.049853403 -0.01304289 -0.011569211 0.05641554 -0.022430109 0.0066224355 0.027016545 0.044394113
-0.005283406 0.009249136 0.025591966 0.010001894 0.07260474 0.016796837 -0.06519666 -0.061926436
-0.07973494 -0.045974884 -0.036111742 -0.0242223 0.03929945 -0.12139652 -0.045400612 0.011472681
-0.04956109 0.012801655 -0.12441162 -0.0024332858 -0.06991213 -0.046651985 -0.014329684 -0.14307189
-0.14171885 -0.065836385 0.030365514 -0.042797457 -0.0106768105 0.0116852345 -0.03676763 -0.105495244
0.022452608 0.0013398984 -0.018765949 -0.055205617 -0.019669477 0.052695587 -0.034778263 0.07429062
0.011105754 0.042575426 0.033533752 0.08700968 0.03665872 -0.06796686 0.0107548935 -0.057780206
0.058597486 0.04498831 -0.03653985 -0.13146193 0.0289216 -0.120415434 -0.10534613 0.0015806651
0.074483 0.06507001 -0.10867232 -0.0086855795 -0.018871035 -0.008158151 -0.041220795 0.022993118
-0.059610892 -0.11964645 -0.001550401 -0.059017558 -0.07959707 -0.06699543 0.02783226 -0.0080384845
0.016095826 0.075349376 -0.15480846 -0.08548396 -0.09616034 -0.015611759 -0.05528585 -0.04581236
-0.096348725 0.07521663 -0.11787517 0.10231667 -0.024624743 0.000571016 0.11460671 0.06555667
0.018298276 0.06750744 -0.05406921 -0.08215847 0.09030969 -0.057686124 -0.019798303 -0.060005333
-0.06312668 0.0051421984 0.080844864 0.07482641 0.006562503 0.07498232 -0.08252833 -0.13017242
0.010941425 0.022998715 0.08286191 -0.08553038 0.020689428 -0.032418888 -0.13997084 -0.1985138
-0.15777446 -0.039296243 -0.12667885 -0.0733956 -0.10292983 -0.0991409 -0.058401704 0.035804473
-0.030727267 -0.012589773 -0.017943626 0.11623544 0.09453374 -0.07639886 0.010110044 0.12622547
0.017369872 -0.100906186 -0.0013491986 0.08931023 -0.035965566 -0.007651686 -0.0213894 0.063459165
-0.03346835 0.03435607 -0.054967143 0.038454045 0.019093899 -0.014372377 -0.05959701 0.048068926
0.016410336 0.13971666 0.038698506 0.0051115896 -0.020255173 -0.03960326 0.022429995 0.1107522
0.070864886 0.065973274 0.042849526 -0.02218918 -0.08576679 0.07743657 -0.076310456 -0.048510943
-0.044838443 -0.050954554 -0.024216065 0.07795589 -0.083618686 0.06312027 0.078728385 -0.082566366
-0.096638516 -0.068681546 -0.0068791173 -0.074577875 0.02974537 -0.01856246 -0.11989188 -0.04827912
-0.013852314 -0.0797397 -0.028786648 -0.05896585 -0.0041092215 -0.04584283 0.04004311 -0.04629326
0.023035856 0.066500336 0.06821713 0.052548673 0.0047318065 0.04561999 -0.022054296 0.031573877
-0.088738374 0.032980423 0.028457789 -0.07550943 -0.114126876 0.05804167 -0.047284883 -0.024731202
0.009838687 -0.07492887 -0.072390355 -0.002570473 -0.05398481 -0.085986584 -0.108395696 0.028137421
-0.004625592 -0.057137147 0.033238858 -0.062888764 -0.032302745 -0.011072299 -0.028739905 -0.0045179944
00000000: 8437 f23c 0d1b 7d3d ed74 5a3d fba6 29bd
00000010: 20d9 e63b cda0 823c 94e8 dabd cee2 093d
00000020: 6367 8e3b 5aa0 4c3d a4c9 f7bd 6b75 0dbd
00000030: cf2d 2abd bd92 33bd 32af 443c 6e6e e4bb
00000040: 8305 e6bd 6fbd 79bd 5b2b 7cbd 77b5 89bc
00000050: daee 0f3b 15a6 1fbc 4af4 d6bd e108 a93c
00000060: 497c fbbd d3f4 343c 830d d73b 58f3 ceba
00000070: a621 3fbd 5fb1 b2bc fdf2 273d 4a7b 31bc
00000080: 1533 4c3d d8b1 55bc ca8c 3dbc fb13 673d
00000090: 59bf b7bc 0401 d93b cd51 dd3c 9ad6 353d
000000a0: 6c20 adbb b089 173c 3ea6 d13c fcde 233c
000000b0: cbb1 943d 8599 893c d485 85bd 93a6 7dbd
000000c0: 124c a3bd 2950 3cbd e8e9 13bd d86d c6bc
000000d0: 76f8 203d bd9e f8bd fef5 39bd e9f7 3b3c
000000e0: 9200 4bbd 08be 513c 85cb febd c377 1fbb
000000f0: 172e 8fbd 2716 3fbd 0dc7 6abc 7081 12be
00000100: bf1e 11be 3ad5 86bd 19c1 f83c 634c 2fbd
00000110: caed 2ebc 6d73 3f3c a899 16bd e40d d8bd
00000120: 88ee b73c 889f af3a 0cbb 99bc 491f 62bd
00000130: e221 a1bc 54d7 573d a773 0ebd ae25 983d
00000140: e9f4 353c 9263 2e3d b05a 093d 2232 b23d
00000150: 7427 163d 3632 8bbd 4b35 303c f0aa 6cbd
00000160: eb03 703d aa45 383d cfaa 15bd f59d 06be
00000170: feec ec3c 5e9c f6bd b6bf d7bd 522e cf3a
00000180: 8b8a 983d 6d43 853d 988f debd f64d 0ebc
00000190: 6e97 9abc c4a9 05bc 23d7 28bd 105c bc3c
000001a0: 8d2a 74bd 3309 f5bd d336 cbba 65bc 71bd
000001b0: ca03 a3bd e634 89bd 7b00 e43c d9b3 03bc
000001c0: 65db 833c c650 9a3d 1c86 1ebe 3712 afbd
000001d0: b6ef c4bd 77c8 7fbc 6a73 62bd bea5 3bbd
000001e0: 7b52 c5bd 2d0b 9a3d 8a68 f1bd 678b d13d
000001f0: d4b9 c9bc 3cb0 153a ecb6 ea3d 9342 863d
00000200: 44e6 953c 5741 8a3d ad77 5dbd b342 a8bd
00000210: 49f4 b83d 4948 6cbd 0d30 a2bc 27c8 75bd
00000220: 9048 81bd e37f a83b fe91 a53d 973e 993d
00000230: 440a d73b 5590 993d 9d04 a9bd eb4b 05be
00000240: aa43 333c cd67 bc3c 81b3 a93d 8d2a afbd
00000250: e07c a93c abc9 04bd 8454 0fbe 3447 4bbe
00000260: a18f 21be 19f5 20bd 1ab8 01be 6f50 96bd
00000270: e0cc d2bd 620a cbbd a036 6fbd b6a7 123d
00000280: c0b7 fbbc 5645 4ebc 83fe 92bc d90c ee3d
00000290: e89a c13d 0177 9cbd 99a4 253c 4041 013e
000002a0: 434b 8e3c e7a7 cebd 98d7 b0ba 48e8 b63d
000002b0: a150 13bd ffba fabb d338 afbc e1f6 813d
000002c0: 1c16 09bd f3b8 0c3d 3a25 61bd fd81 1d3d
000002d0: cf6a 9c3c 1e7a 6bbc ff1b 74bd ece3 443d
000002e0: f86e 863c e211 0f3e 5382 1e3d 1f7f a73b
000002f0: 2dee a5bc 0737 22bd 1cbf b73c 0dd2 e23d
00000300: 9c21 913d ff1c 873d fc82 2f3d 15c6 b5bc
00000310: 80a6 afbd 1097 9e3d a848 9cbd 69b3 46bd
00000320: 84a8 37bd b9b5 50bd c560 c6bc 56a7 9f3d
00000330: 4640 abbd 3345 813d 593c a13d 8e18 a9bd
00000340: 6aea c5bd e9a8 8cbd 386a e1bb 49bc 98bd
00000350: 90ac f33c 4d10 98bc e089 f5bd 54c0 45bd
00000360: d1f4 62bc 914e a3bd fad1 ebbc 2d86 71bd
00000370: a6a6 86bb b1c5 3bbd 3e04 243d 009e 3dbd
00000380: b1b5 bc3c 5431 883d 6cb5 8b3d 473d 573d
00000390: 450d 9b3b 07dc 3a3d 36ab b4bc 9c53 013d
000003a0: 77bc b5bd 7b16 073d 4f20 e93c b0a4 9abd
000003b0: 5abb e9bd 1abd 6d3d cbad 41bd 1799 cabc
000003c0: 7232 213c 4f74 99bd 6541 94bd 6175 28bb
000003d0: 2d1f 5dbd bc19 b0bd 90fe ddbd 7380 e63c
000003e0: 4792 97bb a408 6abd 7825 083d d3cb 80bd
000003f0: e24f 04bd 9768 35bc f36f ebbc af0b 94bb
