npy/weights_D7.npy (npy, 2128 bytes, 1 tensors)

array (column-major) f4 [4, 128]
000000 d4 3b 2b 3e 56 30 7d bd ea 28 6b bd 8e c1 ef 3b
       0.16722041 -0.061813675 -0.057412066 0.0073167747
000010 9a 4c be 3c 89 fa bc 3d ca 0b 05 3e b6 39 09 be
       0.023229886 0.09227473 0.12992778 -0.13400921
000020 b0 27 86 bd f2 3b e4 bc b4 52 0d be 53 38 24 be
       -0.065505385 -0.027860615 -0.1380108 -0.16037111
000030 20 1a be bd fb ed 01 bb 5f 94 01 bd 8f 9b 4b bd
       -0.09282327 -0.0019825685 -0.03163564 -0.0497089
000040 16 1f 23 3e b3 48 ff 3d 51 48 0b be bd 54 0d bd
       0.15929827 0.12465038 -0.13601805 -0.03450464
000050 18 62 2b bc f8 af 56 bd 86 06 02 be d5 2e f7 3d
       -0.010460399 -0.05241391 -0.12697801 0.120694794
000060 1b b4 1e 3e a9 a3 a4 bd 66 16 55 3d d1 77 2b be
       0.15498392 -0.08039028 0.052023314 -0.16744925
000070 b5 f6 2f be a4 d1 46 3d 2d df 23 3d ae ab de bb
       -0.17183955 0.048539773 0.04000776 -0.006795368
000080 bd 9c 1e bd c6 ef 00 bd eb ff e8 3c 2a ca 2d 3e
       -0.038723696 -0.031478666 0.028442344 0.1697165
000090 a4 73 1c 3e e8 f9 55 3e 6d 6c 10 3e c1 43 d8 bc
       0.15278488 0.20896113 0.14103861 -0.026399495
0000a0 d8 c1 24 bb a3 b3 93 bd 81 31 76 3c f2 f1 07 be
       -0.0025139954 -0.07211997 0.015026451 -0.13275889
0000b0 ad 97 1d 3e 2a 13 41 be 2a 25 29 be f4 62 d7 bc
       0.15389891 -0.18854967 -0.16518083 -0.026292302
0000c0 e0 d8 c8 bc 58 48 ba bc f8 27 f2 bd 13 4a 86 bc
       -0.024517477 -0.022739574 -0.1182403 -0.016392743
0000d0 44 63 a6 3d 10 fc e9 3d 07 53 4a be e0 66 19 be
       0.08124402 0.1142503 -0.19758235 -0.1498065
0000e0 8e 8a 1a be 6a 70 50 bd b9 fe 10 be 98 cb a1 bd
       -0.15091917 -0.050888456 -0.14159669 -0.079001606
0000f0 4f 7c ec 3d f6 4c 33 be 9e 65 29 3e d4 7d 81 bd
       0.115471475 -0.17509827 0.1654267 -0.06322828
000100 18 25 a5 3d d6 21 51 bd 66 ba ae 3c 7f 69 f8 3d
       0.08063716 -0.05105766 0.021329116 0.12129497
000110 d6 6a 19 3e 5a b1 2b 3e 31 f0 08 be ca b7 7d 3d
       0.14982161 0.16766873 -0.13372876 0.061942853
000120 c2 86 fe bd f9 c0 36 3e 88 cc 45 3e db e0 4b 3e
       -0.12428047 0.1784705 0.19316304 0.19909994
000130 11 33 38 bd dd ed 1b 3d e9 5a 24 bd 8e bc b6 bd
       -0.044970576 0.03806864 -0.04012576 -0.08922683
000140 67 aa e3 3d 18 3c 4d 3d f6 ec 19 3e 84 bf 32 3d
       0.11116486 0.050106138 0.150318 0.043639675
000150 61 ef 5f bd cc 5f 7d bd 5c ed d3 bd c2 5d 1b 3d
       -0.05467165 -0.061858937 -0.10348007 0.03793121
000160 07 bd 93 3d 44 b3 4e bd ff 84 20 3e 32 73 76 bd
       0.072137885 -0.05046393 0.15675734 -0.060168453
000170 5e b3 02 bd a2 31 02 3e 7e e6 16 3e 0e 70 c6 3d
       -0.03190934 0.12714246 0.14736363 0.096893415
000180 b0 19 df 3c 76 3c 14 be 47 89 36 be 5e 70 d0 bd
       0.027233928 -0.14476189 -0.17825805 -0.10177682
000190 52 ab d9 bd 47 f3 4f 3c 37 2b 28 3d 20 83 15 be
       -0.1062838 0.012692279 0.041056838 -0.14600801
0001a0 d6 de cc bd e4 38 e6 bc cb 04 eb bc 3b 04 ee 3d
       -0.1000344 -0.0281033 -0.028688809 0.11621901
0001b0 c6 8a 27 3d fb 3e f5 bd 14 e4 33 3c d2 27 5c 3d
       0.04090383 -0.11974903 0.010979671 0.053748913
0001c0 4b 06 af bd 89 40 b5 bd 62 8c 11 3e 0c b8 43 be
       -0.08546122 -0.088502 0.14213708 -0.19113177
0001d0 97 cb f9 3d 28 06 32 3e 21 e1 82 3d 3f e0 ff 3c
       0.12197035 0.17385161 0.06390596 0.031234859
0001e0 30 48 01 be 35 b5 11 3c 08 75 10 be 71 da a1 3d
       -0.12625194 0.008893301 -0.14107144 0.079029925
0001f0 af b7 42 be 66 ef c7 bd 67 7a 18 3e 36 65 cb bc
       -0.19015382 -0.097624585 0.14890443 -0.024828535
000200 99 d8 db bd 95 4e ec bd 04 27 f1 bd c7 a6 d5 3a
       -0.10734672 -0.11538426 -0.1177502 0.0016300314
000210 bc 18 b6 3b 4c 65 e1 bc f8 9e ce 3d 08 13 03 3e
       0.005557148 -0.027514122 0.10088915 0.12800229
000220 96 24 35 be 3b d9 20 be 30 05 e2 bc b4 13 5a be
       -0.17689738 -0.15707867 -0.027590364 -0.21296579
000230 ad e4 d1 3d 63 d9 cf bc d5 74 46 bc 4d f8 6e bd
       0.102486946 -0.025372213 -0.012112816 -0.058342267
000240 b4 fa 15 be 0a 67 7e 3c b1 d0 d4 3d 03 c3 3d be
       -0.14646417 0.015527496 0.10391367 -0.18531422
000250 32 33 e7 3d 43 5e 51 3b b0 7c 04 be 62 79 cd bd
       0.112890616 0.0031947054 -0.1293819 -0.100329176
000260 cf c1 db 3b 24 2e 14 3e 29 03 c1 bd 69 87 dc bd
       0.0067064534 0.14470726 -0.09424431 -0.10768015
000270 3b ab 09 be 14 c2 27 be fd 81 2f bd 23 19 17 be
       -0.13444225 -0.16382629 -0.042848576 -0.14755683
000280 31 ca 9e 3d 50 9e 39 bd 6b f5 d4 bd 54 9d 6d bd
       0.07753409 -0.045316994 -0.10398372 -0.058011368
000290 a3 19 bc bd 31 39 2b 3e fb 12 a1 3d f3 ba c7 3d
       -0.09184577 0.16721036 0.07864948 0.097524546
0002a0 d8 57 1b be 26 2e 3a be 54 e8 85 bd b6 2d 2b be
       -0.15170228 -0.18181667 -0.06538454 -0.16716656
0002b0 12 26 e7 3c 72 68 1d 3e 4a 2e d2 bd b3 89 46 3e
       0.028216396 0.15371874 -0.10262735 0.19388466
0002c0 c7 09 e3 3d ca f9 1b b9 fc 5a b6 3b 4d a5 2f bd
       0.11085849 -0.00014875006 0.0055650454 -0.042882252
0002d0 aa 6a fc 3d 88 53 bd bd 87 b4 0b 3e 59 ff be bd
       0.12325032 -0.09244448 0.13643084 -0.093260475
0002e0 21 3e 23 be da 7b a3 3d 4b 8c 3a be d3 29 1c 3e
       -0.15941669 0.07982607 -0.1821758 0.1525033
0002f0 d6 19 62 3d d5 e5 72 bd a0 2a 18 bd 57 3c 4e 3b
       0.05520042 -0.059301216 -0.037150025 0.003146907
000300 aa df 16 3d c6 9c 10 3e b7 5b 24 3d b4 79 03 be
       0.036834396 0.14122304 0.04012653 -0.12839395
000310 4b c6 a4 bd e0 56 75 bd 70 c2 48 3d fa e2 44 3d
       -0.08045634 -0.059897304 0.049013555 0.048068024
000320 f0 f3 0a ba aa 90 a7 bd 24 2f e8 bd 87 bf 0b be
       -0.0005300632 -0.08181889 -0.11337116 -0.1364728
000330 2f 85 7a 3d e4 a0 89 3d f0 99 b4 bc 6d 9a 33 3e
       0.06116217 0.067201406 -0.02204606 0.17539378
000340 79 37 2c bd a8 9c d2 3a 72 f4 e3 3d a2 f4 1a 3e
       -0.04204509 0.0016068416 0.111306086 0.15132383
000350 8f b7 0a 3e 59 8f 5c bb 40 92 13 bd 18 39 ee 3d
       0.13546585 -0.0033654778 -0.036028147 0.116319835
000360 ee 77 b5 bd 87 da 3d bc 10 04 ae 3d 40 71 15 be
       -0.088607654 -0.0115877455 0.084968686 -0.14593983
000370 1d e6 96 bd 49 0c ec 3a 81 15 1b be e3 21 3c 3d
       -0.073681094 0.0018009032 -0.15144922 0.045930754
000380 5d 21 1c 3e d1 a7 89 bd fd 43 29 bd 9c 5f fd 3d
       0.15247102 -0.067214616 -0.041324604 0.12371752
000390 11 aa aa bd 40 33 b0 3c b6 92 26 3e 52 65 b7 3c
       -0.08333219 0.021508813 0.16266903 0.02238718
0003a0 7a df 41 be 37 a6 d0 3c c1 6b 22 be 36 6b af bd
       -0.18932906 0.025469882 -0.15861417 -0.08565371
0003b0 b8 e4 c7 bd c2 66 4d bc 23 db ac 3d ae 5f 96 3b
       -0.097604215 -0.012536706 0.084402345 0.0045890426
0003c0 65 40 83 bd cc eb 17 3e 91 fd 0e 3e 71 9e 20 3d
       -0.06408767 0.14836043 0.13963915 0.0392136
0003d0 33 ad 2c be 6d 4c 22 3e 86 16 ba 3d 53 be 26 3b
       -0.16862945 0.15849467 0.09086327 0.0025443032
0003e0 a3 1f b2 3c 3a e1 97 bc 95 bb 10 3d 46 f7 01 3e
       0.021743601 -0.018540014 0.035335142 0.12691984
0003f0 06 f6 cd 3d 29 94 58 bc 56 72 a8 3c cd 9d d7 bd
       0.10056691 -0.013218918 0.020562332 -0.10528145
