npy/weights_C4.npy (npy, 73808 bytes, 1 tensors)

array (column-major) f4 [3, 3, 32, 64]
0.07833036 -0.060144693 -0.07819414 0.07189326 0.11402762 -0.050529547 0.0128048295 0.029216632
0.0064855455 0.0008512252 -0.06539239 0.027294582 0.06663379 -0.042735893 0.097030155 0.06842813
0.11889017 0.10374143 -0.0046962425 0.08142094 0.0531533 0.09280359 0.05686602 0.041608892
-0.0066467486 0.034425985 -0.054740943 -0.033878632 -0.04101437 0.016823698 -0.0738169 -0.06478557
0.0055696564 -0.01857073 0.008851861 0.02680438 0.078082904 -0.10136683 -0.043124083 -0.043428164
0.05593511 0.047043055 0.04066289 0.0013507479 -0.004985563 -0.017138766 0.03364829 -0.11343857
0.049385075 0.07481629 0.052607957 -0.04809943 -0.094292395 -0.03146542 -0.058989096 -0.04131669
0.016643073 0.06356524 0.08313392 0.05323698 -0.0241213 -0.020510396 -0.046047986 0.03778617
0.020653985 -0.06461267 -0.087956145 0.026646659 -0.11192067 0.03381331 -0.043228097 -0.047534253
0.06464765 -0.06520099 -0.115509406 0.042440888 -0.003745221 -0.006943539 0.021437362 -0.07266554
0.0012854432 -0.02860687 0.05852523 0.0458858 0.0659104 0.04737792 -0.011658273 0.05442161
0.014174029 -0.004251369 -0.015691794 0.019326875 -0.0032995897 0.053893898 -0.082404636 -0.07914739
0.09996285 0.0022881597 0.051207133 -0.0782853 -0.00872096 -0.0436464 -0.070382625 -0.044566225
0.025814902 -0.05764621 0.03275506 -0.013248808 -0.018735746 -0.00014721927 -0.04725729 0.0845364
0.03206647 -0.080142856 -0.06206276 0.05056588 0.065717734 0.027812239 -0.017285762 -0.044415016
0.058092896 0.040087994 -0.045656677 0.025888968 0.059965547 -0.07462007 -0.067501046 -0.049571436
0.0865102 0.0064374623 -0.05442725 -0.054869127 0.01833712 -0.080432296 0.010096074 0.06675164
0.053120542 0.06858197 0.027369948 -0.019330086 -0.014911057 0.049715042 -0.115432866 0.039066337
0.03523736 -0.106355116 -0.07703281 -0.022404848 -0.06636751 -0.06684776 0.04180848 -0.06997497
-0.0035196121 0.027741866 -0.12065663 0.0039660935 -0.042716265 -0.05926016 0.06845163 0.03019081
0.049725626 0.099641904 -0.0049317814 -0.05357815 0.008583964 -0.06388548 -0.0010788828 -0.03805326
0.036039934 -0.064128704 -0.08769448 0.029168494 -0.052485853 0.024455305 0.03661384 0.001179532
-0.07685124 0.057716765 -0.0070807096 0.079933986 -0.09947264 -0.103163205 -0.06477899 0.014854541
-0.09207065 -0.062272094 -0.05575868 -0.114434876 -0.0758656 -0.003809303 0.059791278 0.07564462
0.04938227 -0.051588386 -0.021772822 -0.061440554 0.04805599 0.022797398 -0.06588892 0.037409004
0.0815581 -0.06284472 0.057874005 -0.034589864 0.0115634445 -0.078387395 -0.03958025 -0.097563855
-0.065422855 0.036539633 0.036199145 -0.035897136 0.04021781 0.085926354 0.10814526 -0.042426746
0.026059864 0.018256241 0.01119866 -0.002121417 -0.11527294 -0.054788776 0.010595819 0.06556809
0.0011237431 0.005432744 0.05168789 -0.02445668 -0.07782559 0.027284343 0.022850731 -0.11367307
0.050149865 -0.09306598 -0.06105355 -0.0014418596 0.03312067 0.06628715 0.060592353 0.07074187
0.026292706 -0.030836392 0.015173862 -0.059351765 0.08195805 0.027257796 0.03806468 -0.014427069
-0.0031389194 0.022052864 -0.05428603 0.10099111 0.06955941 0.058687784 0.022481931 0.09501829
00000000: ab6b a03d 485a 76bd 4024 a0bd c63c 933d
00000010: 5087 e93d 12f8 4ebd 59cb 513c b857 ef3c
00000020: b384 d43b c224 5f3a 72ec 85bd e398 df3c
00000030: 4c77 883d d50b 2fbd bfb7 c63d 0c24 8c3d
00000040: b07c f33d 6376 d43d f0e2 99bb 06c0 a63d
00000050: 46b7 593d cf0f be3d 58ec 683d 166e 2a3d
00000060: f8cc d9bb 4302 0d3d 0a38 60bd 52c4 0abd
00000070: affe 27bd dad1 893c 512d 97bd 4cae 84bd
00000080: aa81 b63b a521 98bc 6507 113c dc94 db3c
00000090: eee9 9f3d 6a99 cfbd e1a2 30bd bbe1 31bd
000000a0: 371c 653d 38b0 403d 218e 263d 940b b13a
000000b0: ef5d a3bb 9966 8cbc cad2 093d 7b52 e8bd
000000c0: 0148 4a3d 4839 993d 717b 573d e803 45bd
000000d0: 5f1c c1bd e2e1 00bd 8d9e 71bd b13b 29bd
000000e0: 0e57 883c 7e2e 823d 1e42 aa3d 050f 5a3d
000000f0: 089a c5bc 6b05 a8bc d09c 3cbd acc5 1a3d
00000100: 8c32 a93c a653 84bd 5a22 b4bd 184a da3c
00000110: aa36 e5bd d37f 0a3d f20f 31bd 47b3 42bd
00000120: fd65 843d 1988 85bd 3290 ecbd 7fd6 2d3d
00000130: 6272 75bb a086 e3bb 689d af3c acd1 94bd
00000140: 517c a83a f458 eabc 27b8 6f3d c0f2 3b3d
00000150: 08fc 863d 5a0f 423d 5702 3fbc 32e9 5e3d
00000160: 303a 683c 114f 8bbb 148c 80bc 6553 9e3c
00000170: ee3d 58bb d9bf 5c3d c3c3 a8bd 0718 a2bd
00000180: 53b9 cc3d f3f4 153b 92be 513d 0b54 a0bd
00000190: 5be2 0ebc 91c6 32bd c424 90bd 138b 36bd
000001a0: c679 d33c 6f1e 6cbd 2b2a 063d 8711 59bc
000001b0: b57b 99bc df5e 1ab9 dc90 41bd 6c21 ad3d
000001c0: 2158 033d f021 a4bd 8535 7ebd 2b1e 4f3d
000001d0: 0597 863d 7ed6 e33c df9a 8dbc 85ec 35bd
000001e0: d1f2 6d3d 4f33 243d 7f02 3bbd 1a15 d43c
000001f0: 6f9e 753d 68d2 98bd fd3d 8abd 6b0b 4bbd
00000200: 422c b13d 59f1 d23b 1cef 5ebd 73be 60bd
00000210: ba37 963c b0b9 a4bd 016a 253c 15b5 883d
00000220: ed94 593d b474 8c3d f136 e03c 215a 9ebc
00000230: 824d 74bc 00a2 4b3d 1168 ecbd 0604 203d
00000240: 0d55 103d b6d0 d9bd 61c3 9dbd 5f8a b7bc
00000250: b0eb 87bd 7ae7 88bd 5e3f 2b3d 094f 8fbd
00000260: 4ba9 66bb e942 e33c d31a f7bd 01f6 813b
00000270: 40f7 2ebd c8ba 72bd 5e30 8c3d b852 f73c
00000280: 19ad 4b3d 0e11 cc3d c89a a1bb c374 5bbd
00000290: c1a3 0c3c 64d6 82bd 4d69 8dba bcdd 1bbd
000002a0: 9c9e 133d e955 83bd 2a99 b3bd c4f2 ee3c
000002b0: 68fb 56bd 7e56 c83c 65f8 153d 879a 9a3a
000002c0: 2f64 9dbd 6a68 6c3d 4c05 e8bb 6eb4 a33d
000002d0: 50b8 cbbd 3b47 d3bd d9aa 84bd 7660 733c
000002e0: 898f bcbd 0611 7fbd 3763 64bd d55c eabd
000002f0: 6c5f 9bbd 80a5 79bb b3e7 743d 91eb 9a3d
00000300: 1045 4a3d 584e 53bd eb5c b2bc 17a9 7bbd
00000310: 5cd6 443d 9cc1 ba3c c5f0 86bd 2f3a 193d
00000320: ef07 a73d bcb4 80bd 4b0d 6d3d 1aae 0dbd
00000330: 9a74 3d3c 9289 a0bd e61e 22bd 8fcf c7bd
00000340: 6bfc 85bd 95aa 153d 8e45 143d e008 13bd
00000350: 6ebb 243d 28fa af3d 437b dd3d abc7 2dbd
00000360: 7f7b d53c 1d8e 953c 967a 373c 7907 0bbb
00000370: 3814 ecbd 326a 60bd 169a 2d3c 9048 863d
00000380: 904a 933a 2905 b23b aeb6 533d 6059 c8bc
00000390: 0663 9fbd 6a83 df3c 7531 bb3c 6dcd e8bd
000003a0: f269 4d3d 6099 bebd 4a13 7abd c8fc bcba
000003b0: 8aa9 073d 8fc1 873d b02f 783d 1de1 903d
000003c0: cd63 d73c 9a9c fcbc ca9b 783c d61a 73bd
000003d0: 9fd9 a73d be4b df3c b6e9 1b3d 835f 6cbc
000003e0: 54b6 4dbb 35a8 b43c 075b 5ebd 6dd4 ce3d
000003f0: 2a75 8e3d 9a62 703d 072c b83c f398 c23d
