npy/weights_C1.npy (npy, 1232 bytes, 1 tensors)

array (column-major) f4 [3, 3, 1, 32]
00000000: f167 883d 75d3 683d fc75 f7bd 263f 523d
00000010: 3951 38be 88fc f9bc daea 2d3d 5b95 45be
00000020: 4a23 24be 49c3 0abe 9932 bf3d 2e0b 693d
00000030: 7642 2fbe 0820 5e3d f438 3b3d dd12 71be
00000040: cc01 7ebd 3556 ad3c 2e7e cd3c cbcb 8b3d
00000050: 3a4d 503c d59d 0b3e 7b16 46bc 6505 4bbd
00000060: 789c 69bc 0a4b 07be 8349 84bc 4c0c 503d
00000070: 2291 0fbc 15df 07bc 481c 0d3e 2c09 c53d
00000080: a690 0138 acf6 f4bd a298 0a3e 2a99 843d
00000090: 2b0a df3c d8a7 c83c 9c82 d13c 5f38 0bbe
000000a0: b82f 29bd cec8 e73c 3663 d6bd 21bb 68bd
000000b0: 1020 d83d 0bd2 e73c ad6d e7bd bcbd 55bc
000000c0: 7f5e 8a3d c1a9 023e a056 18bd 0dd3 f1bd
000000d0: 35ec 8bbc 49bb bfbd c031 653d 8529 a7bd
000000e0: 1144 143d d595 a53d ea1a d93d 62ec aebd
000000f0: a133 1fbe 598d a8bb dcb1 c83d bfb6 79bd
00000100: ebec b33d e59e cebc bcb1 ebbd c893 24bd
00000110: 7403 32be 38da 163e 4b89 cb3d f995 22bd
00000120: 70a7 aebd 049c 12bd 29af a4bd 30f6 b5bd
00000130: e6cf a43d 30d0 f83d 253e 9b3d 7402 b53d
00000140: b437 11be abce 06be 9d8d 08be bfe4 c8bc
00000150: e18a a0bd c937 02bd 0a72 21be 45ab 003d
00000160: bef0 0e3d 8fde 98bd 5d86 0ebe dc07 08be
00000170: 7236 cb3c 7ed3 68bd 32c7 07be 2c4e c4bd
00000180: c5cd 8a3c 842c adbd 9ccb 84bd bdb1 d13c
00000190: 4be9 b9bc 9d2e ab3d 5fda 083e e648 f0bd
000001a0: 2cb9 363e 61f4 9d3c 2c41 3d3d e467 b43d
000001b0: 2e10 8cbe 2276 33be 257f bd3c 45c9 f1bd
000001c0: e119 1cbe b57b f93c c346 c8bd 2a25 b5bd
000001d0: 3224 84bc 93a3 9e3c 228c 65be d07b 57bb
000001e0: 32de c73d c47c 4bbe 8e5f 913d 55dc 87bd
000001f0: a5b6 66bd 5298 ca3d aebf 003e 5faa fe3d
00000200: ae9d 3e39 6559 2f3c fe78 c13d ce7f b4bd
00000210: 3491 8c3d c4e5 e2bd c64e 91bd c374 243e
00000220: 1c85 e7bd f3a3 623d bad9 f53d f938 0a3e
00000230: cea8 04be 6ed4 d73d 37e8 fa3c 6dae 89bc
00000240: 54b0 ed3d 507c 01be 9605 953c 5e2d 643d
00000250: 68b7 633d 2bc7 cc3b 3939 5ebe b08a 27bd
00000260: 2367 e43d 30b0 d93d adac 14bd a9b1 09be
00000270: 522d c13b 6a1a 93bd 0146 d4bc 57b0 acbc
00000280: 562c 19bd eb59 4bbe 250c 1f3e c0f7 6e3c
00000290: 882d ffbc b48f 88bd e13d 113d b206 c9bd
000002a0: fce2 853d 6afd 3a3c 9de2 2e3d 9b37 08be
000002b0: e6e7 28be faa1 ab3b 3303 a0bd 1df7 02be
000002c0: 540a 94bb 8ca4 a9bd a809 583d be1d dd3d
000002d0: c44a 6dbc 33f2 14be c9be 37be 8b0d 9e3d
000002e0: d0bf a13d 592f 213d 0fef 60bd b3ec 9c3d
000002f0: e36b bb3d 06b0 563d 8237 0a3e a622 0f3d
00000300: 831d 1d3e 6590 393d a043 d5bd d638 4bbd
00000310: fb32 e0bd 432d e2bd 71c1 8cbd 5df7 b93d
00000320: 3462 263d f886 cc3d d03f d43d 9171 96bc
00000330: 7783 e6bd 5684 223d 6598 193e d66b b53d
00000340: dfc4 8b3c 3693 8cbd 8f8e ab3d 8da4 90bd
00000350: 0a45 13be a2bf d6bd c1a9 4bbe e43e 18be
00000360: a7f2 73bc feba 093d 200f e93c edf1 8cbd
00000370: 607c e1bd b04f 9c3d 0d50 853d 3749 18be
00000380: 32fa 26bc 47e7 ccbd 2cfa 823d 5331 21be
00000390: d14f 6abd 9f4e 81bd 17b9 44be 089b 133e
000003a0: 01ea e03d 3e5e e0bd 692e 10be 0053 28be
000003b0: c3c1 32bd 9f2d e3bc a281 0a3d 44a7 ecbd
000003c0: 7ba8 133d 3ba5 debd b593 f7bc c4a1 c13d
000003d0: 90fb 87bc 1b95 813d 7f48 0cbd 9840 8dbb
000003e0: 4ad7 053d 7065 edbd d993 ac3d b0b8 ebbd
000003f0: 0bf6 63bd edf8 353d aa83 dd3c de56 e03d
0.0666045 0.056842286 -0.120830506 0.051329754 -0.17999734 -0.030515924 0.0424603 -0.19295256
-0.16029087 -0.13551058 0.093358226 0.056895427 -0.17115197 0.054229766 0.04570861 -0.23542352
-0.062013432 0.02115927 0.025084581 0.0682598 0.012713725 0.13634427 -0.012090321 -0.04956569
-0.014258496 -0.13212219 -0.016148334 0.050792977 -0.00876263 -0.008292933 0.1378032 0.0962089
3.089071e-05 -0.119611114 0.13534787 0.06474526 0.027226528 0.024494097 0.025574975 -0.13595723
-0.041305274 0.028293993 -0.10468142 -0.056819085 0.105529904 0.028298398 -0.11300216 -0.0130457245
0.06756305 0.12760068 -0.037191987 -0.11807833 -0.017080406 -0.09361894 0.05595565 -0.08162216
0.036197726 0.08085219 0.106008366 -0.0854118 -0.15547039 -0.005143803 0.09799549 -0.060965296
0.08785423 -0.025222251 -0.115085095 -0.040179998 -0.1738413 0.14731681 0.09938296 -0.039693806
-0.0852803 -0.03579332 -0.08041222 -0.08884847 0.08047466 0.121490836 0.075802125 0.088383585
-0.14181405 -0.13164775 -0.13335271 -0.024523137 -0.07838989 -0.031791482 -0.15766159 0.031413335
0.03489756 -0.07464325 -0.13918443 -0.13284248 0.024806235 -0.05684232 -0.1325958 -0.095852226
0.016943822 -0.08455756 -0.06484148 0.025597448 -0.02269425 0.083585 0.13364552 -0.11732654
0.17844075 0.019281568 0.04620473 0.08808878 -0.27356094 -0.17525533 0.023131916 -0.11805967
-0.15244247 0.030454496 -0.09779122 -0.08844979 -0.01613054 0.019365108 -0.22416738 -0.0032880194
0.09759177 -0.19871813 0.07098304 -0.06633822 -0.056326527 0.09892334 0.1257312 0.124348395
0.00018178552 0.010702466 0.094469056 -0.08813439 0.06863633 -0.110789806 -0.07095103 0.16060166
-0.113046855 0.055332135 0.12004419 0.13498296 -0.12955019 0.105385646 0.030628307 -0.016806806
0.116058975 -0.12645078 0.01819114 0.055707328 0.05559483 0.0062493286 -0.21701516 -0.040903747
0.11152484 0.10629308 -0.03629749 -0.13446678 0.005895295 -0.071827725 -0.025912287 -0.02108018
-0.037395798 -0.1985852 0.15531977 0.014585435 -0.03114964 -0.06668034 0.035459403 -0.0981573
0.065374345 0.011412958 0.042696584 -0.13302462 -0.16494712 0.005237815 -0.0781311 -0.12789579
-0.004517833 -0.08283338 0.052743584 0.107966885 -0.014483158 -0.14545517 -0.17943873 0.07717427
0.078979135 0.039351795 -0.054915484 0.07662334 0.09151437 0.052413963 0.13497737 0.034945153
0.15343289 0.04530372 -0.10413289 -0.04961475 -0.10947224 -0.11043789 -0.068728335 0.09080384
0.040620998 0.09986681 0.10363734 -0.0183647 -0.11255544 0.039676987 0.1499954 0.08858459
0.017061649 -0.06864016 0.083768 -0.070626356 -0.14381805 -0.1048577 -0.19888975 -0.14867741
-0.014889396 0.033625595 0.028449595 -0.06882081 -0.11010051 0.07632387 0.06509409 -0.14871679
-0.010191487 -0.1000505 0.06395373 -0.15741472 -0.057205025 -0.06313824 -0.19211231 0.14414608
0.10982133 -0.10955475 -0.14080204 -0.16437912 -0.043641817 -0.027731715 0.033815034 -0.11555341
0.036049347 -0.10871359 -0.0302218 0.094546825 -0.016599447 0.06327268 -0.034248825 -0.0043106787
0.03267602 -0.11591613 0.08426637 -0.11509836 -0.055654567 0.044426847 0.027040321 0.109540686
