npy/weights_D4.npy (npy, 2128 bytes, 1 tensors)

array (column-major) f4 [4, 128]
0.032042094 0.12886147 0.07938043 -0.11048546 -0.0038784058 -0.0035609102 -0.12634286 -0.030916877
-0.004757498 -0.18516077 0.050731 0.07673875 -0.12703496 -0.003009035 -0.18596187 -0.049248584
0.011724903 -0.0015830661 0.10188523 0.17236124 0.047193076 -0.06485439 -0.019758113 -0.070565015
-0.09886399 -0.01434213 -0.09167131 -0.041142456 -0.04066357 0.06784634 -0.03833858 0.07991523
0.013733013 0.004020043 0.11409176 -0.11492502 0.15947106 0.044353165 -0.044249825 0.14366035
-0.12310942 -0.08126347 -0.15323249 0.02455902 -0.10580191 -0.04520523 -0.14380983 -0.04525114
-0.13044679 0.014915443 -0.05753404 -0.06702761 -0.010649107 -0.051591095 -0.07092912 -0.11906588
-0.11621707 -0.041074064 0.100232184 -0.14435063 -0.07916024 0.08139849 -0.14439826 0.19086629
0.18271641 -0.023107778 -0.04923987 -0.06800186 0.20882837 0.091947496 0.07780417 0.11597235
0.0013262973 0.14546165 -0.06640235 0.09373601 -0.057639007 0.15747243 0.13922665 0.04764327
-0.03063362 -0.10610358 -0.1729481 -0.035256613 0.17520595 0.21208715 0.12423474 0.09223883
0.0781395 0.18345028 0.12293288 0.053884976 -0.044101566 0.0861734 0.119521 0.0029245445
0.18316126 0.19713233 0.11859334 0.066633224 0.2122844 0.1297226 0.14353767 -0.061661623
-0.11271169 0.051265888 0.06645871 -0.057499878 -0.10486122 -0.039673246 0.11126956 0.006985196
0.13566707 -0.12604487 0.13941318 0.19213758 0.08732591 0.17770964 -0.14474313 0.105292626
0.04557421 0.038556494 -0.0633606 -0.028410083 0.0060824878 -0.17442065 -0.11952327 0.16204049
-0.04782556 -0.03365191 0.014494277 -0.176355 0.033372875 0.06153246 0.18334723 0.032756347
-0.011991997 -0.13442336 -0.016830878 -0.12299394 -0.0496535 0.12399149 -0.0037404664 -0.100737646
0.14939086 0.028341329 -0.033689506 0.15318619 0.15146399 0.13325089 -0.16798115 -0.14885521
-0.17785986 -0.11997541 0.0044694636 -0.12238471 -0.19179754 0.15570994 -0.14733914 -0.095640205
0.10572537 -0.099322654 0.12389911 0.034832604 -0.073348485 -0.16549002 0.024260072 0.026843514
0.0030595225 -0.008822496 -0.18726715 -0.18335837 0.053180307 -0.07904175 -0.07618556 0.03940164
0.19041592 -0.07731217 0.009618792 0.1104359 0.0064046145 0.061810393 -0.13189155 0.17710106
0.033002507 0.14174467 0.13614805 -0.0348638 -0.10072949 -0.14333689 0.15689275 0.045368988
-0.13176939 0.06267512 0.07529493 -0.1895931 0.053792186 0.11842257 -0.0344204 0.14845322
-0.13067013 -0.11676246 0.0097105745 0.05051368 -0.15717493 0.099899545 0.14680798 -0.08202792
0.1381966 -0.115941055 -0.041981466 -0.06321008 0.01679969 0.03783625 0.1537205 -0.0057379734
0.07040794 -0.060851794 -0.013342233 0.12035608 0.022228394 0.04545637 -0.08997367 0.07057435
0.058834415 0.17583908 0.16641031 0.080795005 0.11017886 0.10949431 -0.05188719 -0.14318374
-0.01847685 0.084151104 -0.11031438 -0.11143068 -0.19217567 -0.15705085 0.0051966477 -0.034606397
-0.09354334 -0.06491971 0.113764204 -0.22599009 0.10862638 0.068980545 -0.10012094 0.11759112
0.007434182 0.086649634 -0.12654993 0.13125928 -0.001845258 0.09169094 0.08011993 -0.02907032
00000000: 923e 033d 43f4 033e 3592 a23d 3346 e2bd
00000010: da2c 7ebb 295e 69bb 0660 01be 6445 fdbc
00000020: c9e4 9bbb c99a 3dbe 4fcb 4f3d 3529 9d3d
00000030: 7415 02be 3b33 45bb ca6c 3ebe e2b8 49bd
00000040: cf19 403c e27e cfba 34a9 d03d 777f 303e
00000050: 874d 413d 61d2 84bd c4db a1bc 6484 90bd
00000060: 3479 cabd 41fb 6abc 2bbe bbbd fe84 28bd
00000070: d88e 26bd 06f3 8a3d ea08 1dbd 99aa a33d
00000080: 6e00 613c 91ba 833b f1a8 e93d cf5d ebbd
00000090: 624c 233e aaab 353d 4e3f 35bd b31b 133e
000000a0: cb20 fcbd 766d a6bd fae8 1cbe ff2f c93c
000000b0: acae d8bd 1f29 39bd e242 13be 4259 39bd
000000c0: d893 05be e75f 743c d0a8 6bbd c645 89bd
000000d0: 9879 2ebc 2f51 53bd 4943 91bd d0d8 f3bd
000000e0: 3703 eebd 473d 28bd 8846 cd3d a7d0 13be
000000f0: c41e a2bd 40b4 a63d 23dd 13be 7472 433e
00000100: 031a 3b3e 864c bdbc bfaf 49bd 8f44 8bbd
00000110: 1bd7 553e f84e bc3d cb57 9f3d e982 ed3d
00000120: 27d7 ad3a e6f3 143e f5fd 87bd aaf8 bf3d
00000130: e116 6cbd 7440 213e 6e91 0e3e 9725 433d
00000140: 5cf3 fabc d54c d9bd 4f19 31be 3d69 10bd
00000150: 3069 333e 602d 593e c96e fe3d b6e7 bc3d
00000160: 9a07 a03d 64da 3b3e 3cc4 fb3d 7eb6 5c3d
00000170: d8a3 34bd ae7b b03d 6dc7 f43d b7a9 3f3b
00000180: a08e 3b3e 0fdd 493e 11e1 f23d 0077 883d
00000190: 1561 593e 00d6 043e 8afb 123e e690 7cbd
000001a0: 63d5 e6bd 2efc 513d 811b 883d fe84 6bbd
000001b0: 7bc1 d6bd 6a80 22bd 4ce1 e33d 12e4 e43b
000001c0: 4fec 0a3e e811 01be 54c2 0e3e b7bf 443e
000001d0: edd7 b23d 84f9 353e 8b37 14be a9a3 d73d
000001e0: 06ac 3a3d 6aed 1d3d 34c3 81bd 43bc e8bc
000001f0: 9b4f c73b 549b 32be 9ec8 f4bd f1ed 253e
00000200: bce4 43bd 96d6 09bd 6779 6d3c 6896 34be
00000210: ffb1 083d 7609 7c3d 60bf 3b3e 852b 063d
00000220: 157a 44bc 47a6 09be e9e0 89bc 3fe4 fbbd
00000230: 7861 4bbd 40ef fd3d 9d22 75bb 8a4f cebd
00000240: ebf9 183e 132c e83c 02fe 09bd d7dc 1c3e
00000250: 6019 1b3e ec72 083e 4003 2cbe 806d 18be
00000260: e520 36be abb5 f5bd 9474 923b d6a4 fabd
00000270: 9366 44be 6d72 1f3e 12e0 16be 03df c3bd
00000280: 8b86 d83d ad69 cbbd d1be fd3d a2ac 0e3d
00000290: bb37 96bd 3776 29be 0fbd c63c eee6 db3c
000002a0: 4582 483b 3b8c 10bc f6c2 3fbe 4cc2 3bbe
000002b0: 98d3 593d a4e0 a1bd 2d07 9cbd 9d63 213d
000002c0: 64fc 423e d855 9ebd 2398 1d3c 382c e23d
000002d0: cddd d13b e52c 7d3d 940e 07be fb59 353e
000002e0: a32d 073d 8425 113e 656a 0b3e 58cd 0ebd
000002f0: 434b cebd e8c6 12be 7ea8 203e d5d4 393d
00000300: 8eee 06be d05b 803d 3a34 9a3d b224 42be
00000310: 3255 5c3d 8887 f23d 68fc 0cbd 1f04 183e
00000320: 64ce 05be 2821 efbd 1a19 1f3c 6fe7 4e3d
00000330: 77f2 20be 2298 cc3d d554 163e 41fe a7bd
00000340: 6983 0d3e 8172 edbd c2f4 2bbd 4974 81bd
00000350: 819f 893c 2ffa 1a3d e868 1d3e 9c05 bcbb
00000360: 0a32 903d bb3f 79bd 6299 5abc 407d f63d
00000370: 5218 b63c 7530 3a3d 1e44 b8bd 4989 903d
00000380: 5bfc 703d 290f 343e 7767 2a3e da77 a53d
00000390: 74a5 e13d 8e3e e03d aa87 54bd c29e 12be
000003a0: c35c 97bc 6a57 ac3d 81ec e1bd c535 e4bd
000003b0: b3c9 44be f0d1 20be a448 aa3b 70bf 0dbd
000003c0: a793 bfbd a0f4 84bd 35fd e83d f269 67be
000003d0: 8277 de3d ac45 8d3d 350c cdbd 9dd3 f03d
000003e0: 709a f33b 5d75 b13d 4e96 01be d568 063e
000003f0: 96dc f1ba 76c8 bb3d eb15 a43d e124 eebc
